{"class_name": "Model", "keras_version": "2.1.6", "config": {"layers": [{"class_name": "InputLayer", "config": {"dtype": "float32", "batch_input_shape": [null, 384], "name": "input_9", "sparse": false}, "inbound_nodes": [], "name": "input_9"}, {"class_name": "InputLayer", "config": {"dtype": "float32", "batch_input_shape": [null, 384], "name": "input_10", "sparse": false}, "inbound_nodes": [], "name": "input_10"}, {"class_name": "Model", "config": {"layers": [{"class_name": "InputLayer", "inbound_nodes": [], "config": {"dtype": "float32", "batch_input_shape": [null, 384], "name": "input_8", "sparse": false}, "name": "input_8"}, {"class_name": "Dense", "inbound_nodes": [[["input_8", 0, 0, {}]]], "config": {"kernel_initializer": {"class_name": "VarianceScaling", "config": {"distribution": "uniform", "scale": 1.0, "seed": null, "mode": "fan_avg"}}, "name": "dense_11", "kernel_constraint": null, "bias_regularizer": null, "bias_constraint": null, "activation": "linear", "trainable": true, "kernel_regularizer": null, "bias_initializer": {"class_name": "Zeros", "config": {}}, "units": 128, "use_bias": true, "activity_regularizer": null}, "name": "dense_11"}, {"class_name": "BatchNormalization", "inbound_nodes": [[["dense_11", 0, 0, {}]]], "config": {"gamma_initializer": {"class_name": "Ones", "config": {}}, "moving_mean_initializer": {"class_name": "Zeros", "config": {}}, "name": "batch_normalization_12", "epsilon": 0.001, "trainable": true, "center": true, "moving_variance_initializer": {"class_name": "Ones", "config": {}}, "beta_initializer": {"class_name": "Zeros", "config": {}}, "scale": true, "gamma_regularizer": null, "gamma_constraint": null, "beta_constraint": null, "beta_regularizer": null, "momentum": 0.99, "axis": -1}, "name": "batch_normalization_12"}, {"class_name": "Activation", "inbound_nodes": [[["batch_normalization_12", 0, 0, {}]]], "config": {"activation": "relu", "trainable": true, "name": "activation_10"}, "name": "activation_10"}, {"class_name": "Dense", "inbound_nodes": [[["activation_10", 0, 0, {}]]], "config": {"kernel_initializer": {"class_name": "VarianceScaling", "config": {"distribution": "uniform", "scale": 1.0, "seed": null, "mode": "fan_avg"}}, "name": "dense_12", "kernel_constraint": null, "bias_regularizer": null, "bias_constraint": null, "activation": "linear", "trainable": true, "kernel_regularizer": null, "bias_initializer": {"class_name": "Zeros", "config": {}}, "units": 128, "use_bias": true, "activity_regularizer": null}, "name": "dense_12"}, {"class_name": "BatchNormalization", "inbound_nodes": [[["dense_12", 0, 0, {}]]], "config": {"gamma_initializer": {"class_name": "Ones", "config": {}}, "moving_mean_initializer": {"class_name": "Zeros", "config": {}}, "name": "batch_normalization_13", "epsilon": 0.001, "trainable": true, "center": true, "moving_variance_initializer": {"class_name": "Ones", "config": {}}, "beta_initializer": {"class_name": "Zeros", "config": {}}, "scale": true, "gamma_regularizer": null, "gamma_constraint": null, "beta_constraint": null, "beta_regularizer": null, "momentum": 0.99, "axis": -1}, "name": "batch_normalization_13"}, {"class_name": "Add", "inbound_nodes": [[["activation_10", 0, 0, {}], ["batch_normalization_13", 0, 0, {}]]], "config": {"trainable": true, "name": "add_7"}, "name": "add_7"}, {"class_name": "Activation", "inbound_nodes": [[["add_7", 0, 0, {}]]], "config": {"activation": "relu", "trainable": true, "name": "activation_11"}, "name": "activation_11"}, {"class_name": "Dense", "inbound_nodes": [[["activation_11", 0, 0, {}]]], "config": {"kernel_initializer": {"class_name": "VarianceScaling", "config": {"distribution": "uniform", "scale": 1.0, "seed": null, "mode": "fan_avg"}}, "name": "dense_13", "kernel_constraint": null, "bias_regularizer": null, "bias_constraint": null, "activation": "linear", "trainable": true, "kernel_regularizer": null, "bias_initializer": {"class_name": "Zeros", "config": {}}, "units": 128, "use_bias": true, "activity_regularizer": null}, "name": "dense_13"}, {"class_name": "BatchNormalization", "inbound_nodes": [[["dense_13", 0, 0, {}]]], "config": {"gamma_initializer": {"class_name": "Ones", "config": {}}, "moving_mean_initializer": {"class_name": "Zeros", "config": {}}, "name": "batch_normalization_14", "epsilon": 0.001, "trainable": true, "center": true, "moving_variance_initializer": {"class_name": "Ones", "config": {}}, "beta_initializer": {"class_name": "Zeros", "config": {}}, "scale": true, "gamma_regularizer": null, "gamma_constraint": null, "beta_constraint": null, "beta_regularizer": null, "momentum": 0.99, "axis": -1}, "name": "batch_normalization_14"}, {"class_name": "Add", "inbound_nodes": [[["activation_11", 0, 0, {}], ["batch_normalization_14", 0, 0, {}]]], "config": {"trainable": true, "name": "add_8"}, "name": "add_8"}, {"class_name": "Activation", "inbound_nodes": [[["add_8", 0, 0, {}]]], "config": {"activation": "relu", "trainable": true, "name": "activation_12"}, "name": "activation_12"}, {"class_name": "Dense", "inbound_nodes": [[["activation_12", 0, 0, {}]]], "config": {"kernel_initializer": {"class_name": "VarianceScaling", "config": {"distribution": "uniform", "scale": 1.0, "seed": null, "mode": "fan_avg"}}, "name": "dense_14", "kernel_constraint": null, "bias_regularizer": null, "bias_constraint": null, "activation": "linear", "trainable": true, "kernel_regularizer": null, "bias_initializer": {"class_name": "Zeros", "config": {}}, "units": 128, "use_bias": true, "activity_regularizer": null}, "name": "dense_14"}, {"class_name": "BatchNormalization", "inbound_nodes": [[["dense_14", 0, 0, {}]]], "config": {"gamma_initializer": {"class_name": "Ones", "config": {}}, "moving_mean_initializer": {"class_name": "Zeros", "config": {}}, "name": "batch_normalization_15", "epsilon": 0.001, "trainable": true, "center": true, "moving_variance_initializer": {"class_name": "Ones", "config": {}}, "beta_initializer": {"class_name": "Zeros", "config": {}}, "scale": true, "gamma_regularizer": null, "gamma_constraint": null, "beta_constraint": null, "beta_regularizer": null, "momentum": 0.99, "axis": -1}, "name": "batch_normalization_15"}, {"class_name": "Add", "inbound_nodes": [[["activation_12", 0, 0, {}], ["batch_normalization_15", 0, 0, {}]]], "config": {"trainable": true, "name": "add_9"}, "name": "add_9"}, {"class_name": "Activation", "inbound_nodes": [[["add_9", 0, 0, {}]]], "config": {"activation": "relu", "trainable": true, "name": "activation_13"}, "name": "activation_13"}, {"class_name": "Concatenate", "inbound_nodes": [[["activation_13", 0, 0, {}], ["activation_12", 0, 0, {}], ["activation_11", 0, 0, {}], ["activation_10", 0, 0, {}]]], "config": {"trainable": true, "name": "concatenate_3", "axis": -1}, "name": "concatenate_3"}, {"class_name": "BatchNormalization", "inbound_nodes": [[["concatenate_3", 0, 0, {}]]], "config": {"gamma_initializer": {"class_name": "Ones", "config": {}}, "moving_mean_initializer": {"class_name": "Zeros", "config": {}}, "name": "batch_normalization_16", "epsilon": 0.001, "trainable": true, "center": true, "moving_variance_initializer": {"class_name": "Ones", "config": {}}, "beta_initializer": {"class_name": "Zeros", "config": {}}, "scale": true, "gamma_regularizer": null, "gamma_constraint": null, "beta_constraint": null, "beta_regularizer": null, "momentum": 0.99, "axis": -1}, "name": "batch_normalization_16"}], "input_layers": [["input_8", 0, 0]], "name": "model_5", "output_layers": [["batch_normalization_16", 0, 0]]}, "inbound_nodes": [[["input_9", 0, 0, {}]], [["input_10", 0, 0, {}]]], "name": "model_5"}, {"class_name": "Lambda", "config": {"function": ["YwEAAAADAAAABwAAAENAAQBzOwAAAHwAAFwCAH0BAH0CAHQAAGoBAHQAAGoCAHQAAGoDAHwBAHwC\nABiDAQBkAQBkAgBkAwB0BACDAQKDAQBTKAQAAABOdAQAAABheGlzaQEAAAB0CAAAAGtlZXBkaW1z\nKAUAAAB0AQAAAEt0BAAAAHNxcnR0AwAAAHN1bXQGAAAAc3F1YXJldAQAAABUcnVlKAMAAAB0BwAA\nAHZlY3RvcnN0AQAAAHh0AQAAAHkoAAAAACgAAAAAcx8AAAA8aXB5dGhvbi1pbnB1dC0xNS0yOTI2\nY2FmMjRjYmI+dBIAAABldWNsaWRlYW5fZGlzdGFuY2UPAAAAcwQAAAAAAQwB\n", null, null], "name": "lambda_3", "trainable": true, "function_type": "lambda", "arguments": {}, "output_shape": ["YwEAAAADAAAAAgAAAENAAQBzGgAAAHwAAFwCAH0BAH0CAHwBAGQBABlkAgBmAgBTKAMAAABOaQAA\nAABpAQAAACgAAAAAKAMAAAB0BgAAAHNoYXBlc3QGAAAAc2hhcGUxdAYAAABzaGFwZTIoAAAAACgA\nAAAAcx8AAAA8aXB5dGhvbi1pbnB1dC0xNS0yOTI2Y2FmMjRjYmI+dBsAAABldWNsaWRlYW5fZGlz\ndF9vdXRwdXRfc2hhcGUTAAAAcwQAAAAAAQwB\n", null, null], "output_shape_type": "lambda"}, "inbound_nodes": [[["model_5", 1, 0, {}], ["model_5", 2, 0, {}]]], "name": "lambda_3"}], "input_layers": [["input_9", 0, 0], ["input_10", 0, 0]], "output_layers": [["lambda_3", 0, 0]], "name": "model_6"}, "backend": "tensorflow"}